…
auxiliary_head.convs.0.conv.weight - torch.Size([256, 80, 3, 3]): 
The value is the same before and after calling `init_weights` of EncoderDecoder  

auxiliary_head.convs.0.bn.weight - torch.Size([256]): 
The value is the same before and after calling `init_weights` of EncoderDecoder  

auxiliary_head.convs.0.bn.bias - torch.Size([256]): 
The value is the same before and after calling `init_weights` of EncoderDecoder  
2022-11-04 01:28:49,870 - mmseg - INFO - EncoderDecoder(
  (backbone): MetaMobile(
    (stage0): ModuleList(
      (0): MSPatchEmb(
        (convs): ModuleList(
          (0): Sequential(
            (0): Conv2d(3, 24, kernel_size=(3, 3), stride=(2, 2), padding=(1, 1))
            (1): SyncBatchNorm(24, eps=1e-06, momentum=0.1, affine=True, track_running_stats=True)
            (2): Identity()
          )
        )
      )
      (1): MetaMobileModule(
        (norm): Identity()
        (v): Identity()
        (conv_local): ConvNormAct(
          (conv): Conv2d(24, 24, kernel_size=(3, 3), stride=(1, 1), padding=(1, 1), groups=24, bias=False)
          (norm): SyncBatchNorm(24, eps=1e-06, momentum=0.1, affine=True, track_running_stats=True)
          (act): SiLU(inplace=True)
          (drop_path): Identity()
        )
        (se): SqueezeExcite(
          (conv_reduce): Conv2d(24, 24, kernel_size=(1, 1), stride=(1, 1))
          (act1): SiLU(inplace=True)
          (conv_expand): Conv2d(24, 24, kernel_size=(1, 1), stride=(1, 1))
          (gate): Sigmoid()
        )
        (proj_drop): Dropout(p=0.0, inplace=False)
        (proj): ConvNormAct(
          (conv): Conv2d(24, 24, kernel_size=(1, 1), stride=(1, 1), bias=False)
          (norm): Identity()
          (act): Identity()
          (drop_path): Identity()
        )
        (ls): Identity()
        (drop_path): Identity()
      )
    )
    (stage1): ModuleList(
      (0): MetaMobileModule(
        (norm): SyncBatchNorm(24, eps=1e-06, momentum=0.1, affine=True, track_running_stats=True)
        (v): ConvNormAct(
          (conv): Conv2d(24, 96, kernel_size=(1, 1), stride=(1, 1))
          (norm): Identity()
          (act): SiLU(inplace=True)
          (drop_path): Identity()
        )
        (conv_local): ConvNormAct(
          (conv): Conv2d(96, 96, kernel_size=(3, 3), stride=(2, 2), padding=(1, 1), groups=96, bias=False)
          (norm): SyncBatchNorm(96, eps=1e-06, momentum=0.1, affine=True, track_running_stats=True)
          (act): SiLU(inplace=True)
          (drop_path): Identity()
        )
        (se): Identity()
        (proj_drop): Dropout(p=0.0, inplace=False)
        (proj): ConvNormAct(
          (conv): Conv2d(96, 32, kernel_size=(1, 1), stride=(1, 1), bias=False)
          (norm): Identity()
          (act): Identity()
          (drop_path): Identity()
        )
        (ls): Identity()
        (drop_path): Identity()
      )
      (1): MetaMobileModule(
        (norm): SyncBatchNorm(32, eps=1e-06, momentum=0.1, affine=True, track_running_stats=True)
        (v): ConvNormAct(
          (conv): Conv2d(32, 64, kernel_size=(1, 1), stride=(1, 1))
          (norm): Identity()
          (act): SiLU(inplace=True)
          (drop_path): Identity()
        )
        (conv_local): ConvNormAct(
          (conv): Conv2d(64, 64, kernel_size=(3, 3), stride=(1, 1), padding=(1, 1), groups=64, bias=False)
          (norm): SyncBatchNorm(64, eps=1e-06, momentum=0.1, affine=True, track_running_stats=True)
          (act): SiLU(inplace=True)
          (drop_path): Identity()
        )
        (se): Identity()
        (proj_drop): Dropout(p=0.0, inplace=False)
        (proj): ConvNormAct(
          (conv): Conv2d(64, 32, kernel_size=(1, 1), stride=(1, 1), bias=False)
          (norm): Identity()
          (act): Identity()
          (drop_path): Identity()
        )
        (ls): Identity()
        (drop_path): DropPath(drop_prob=0.003)
      )
    )
    (stage2): ModuleList(
      (0): MetaMobileModule(
        (norm): SyncBatchNorm(32, eps=1e-06, momentum=0.1, affine=True, track_running_stats=True)
        (v): ConvNormAct(
          (conv): Conv2d(32, 160, kernel_size=(1, 1), stride=(1, 1))
          (norm): Identity()
          (act): SiLU(inplace=True)
          (drop_path): Identity()
        )
        (conv_local): ConvNormAct(
          (conv): Conv2d(160, 160, kernel_size=(3, 3), stride=(2, 2), padding=(1, 1), groups=160, bias=False)
          (norm): SyncBatchNorm(160, eps=1e-06, momentum=0.1, affine=True, track_running_stats=True)
          (act): SiLU(inplace=True)
          (drop_path): Identity()
        )
        (se): Identity()
        (proj_drop): Dropout(p=0.0, inplace=False)
        (proj): ConvNormAct(
          (conv): Conv2d(160, 48, kernel_size=(1, 1), stride=(1, 1), bias=False)
          (norm): Identity()
          (act): Identity()
          (drop_path): Identity()
        )
        (ls): Identity()
        (drop_path): DropPath(drop_prob=0.006)
      )
      (1): MetaMobileModule(
        (norm): SyncBatchNorm(48, eps=1e-06, momentum=0.1, affine=True, track_running_stats=True)
        (v): ConvNormAct(
          (conv): Conv2d(48, 120, kernel_size=(1, 1), stride=(1, 1))
          (norm): Identity()
          (act): SiLU(inplace=True)
          (drop_path): Identity()
        )
        (conv_local): ConvNormAct(
          (conv): Conv2d(120, 120, kernel_size=(3, 3), stride=(1, 1), padding=(1, 1), groups=120, bias=False)
          (norm): SyncBatchNorm(120, eps=1e-06, momentum=0.1, affine=True, track_running_stats=True)
          (act): SiLU(inplace=True)
          (drop_path): Identity()
        )
        (se): Identity()
        (proj_drop): Dropout(p=0.0, inplace=False)
        (proj): ConvNormAct(
          (conv): Conv2d(120, 48, kernel_size=(1, 1), stride=(1, 1), bias=False)
          (norm): Identity()
          (act): Identity()
          (drop_path): Identity()
        )
        (ls): Identity()
        (drop_path): DropPath(drop_prob=0.009)
      )
    )
    (stage3): ModuleList(
      (0): MetaMobileModule(
        (norm): LayerNorm2d(
          (norm): LayerNorm((48,), eps=1e-06, elementwise_affine=True)
        )
        (v): ConvNormAct(
          (conv): Conv2d(48, 288, kernel_size=(1, 1), stride=(1, 1))
          (norm): Identity()
          (act): GELU()
          (drop_path): Identity()
        )
        (conv_local): ConvNormAct(
          (conv): Conv2d(288, 288, kernel_size=(5, 5), stride=(2, 2), padding=(2, 2), groups=288, bias=False)
          (norm): SyncBatchNorm(288, eps=1e-06, momentum=0.1, affine=True, track_running_stats=True)
          (act): SiLU(inplace=True)
          (drop_path): Identity()
        )
        (se): Identity()
        (proj_drop): Dropout(p=0.0, inplace=False)
        (proj): ConvNormAct(
          (conv): Conv2d(288, 80, kernel_size=(1, 1), stride=(1, 1), bias=False)
          (norm): Identity()
          (act): Identity()
          (drop_path): Identity()
        )
        (ls): Identity()
        (drop_path): DropPath(drop_prob=0.012)
      )
      (1): MetaMobileModule(
        (norm): LayerNorm2d(
          (norm): LayerNorm((80,), eps=1e-06, elementwise_affine=True)
        )
        (qk): ConvNormAct(
          (conv): Conv2d(80, 160, kernel_size=(1, 1), stride=(1, 1))
          (norm): Identity()
          (act): Identity()
          (drop_path): Identity()
        )
        (v): ConvNormAct(
          (conv): Conv2d(80, 240, kernel_size=(1, 1), stride=(1, 1))
          (norm): Identity()
          (act): GELU()
          (drop_path): Identity()
        )
        (attn_drop): Dropout(p=0.0, inplace=False)
        (conv_local): ConvNormAct(
          (conv): Conv2d(240, 240, kernel_size=(5, 5), stride=(1, 1), padding=(2, 2), groups=240, bias=False)
          (norm): SyncBatchNorm(240, eps=1e-06, momentum=0.1, affine=True, track_running_stats=True)
          (act): SiLU(inplace=True)
          (drop_path): Identity()
        )
        (se): Identity()
        (proj_drop): Dropout(p=0.0, inplace=False)
        (proj): ConvNormAct(
          (conv): Conv2d(240, 80, kernel_size=(1, 1), stride=(1, 1), bias=False)
          (norm): Identity()
          (act): Identity()
          (drop_path): Identity()
        )
        (ls): Identity()
        (drop_path): DropPath(drop_prob=0.014)
      )
      (2): MetaMobileModule(
        (norm): LayerNorm2d(
          (norm): LayerNorm((80,), eps=1e-06, elementwise_affine=True)
        )
        (qk): ConvNormAct(
          (conv): Conv2d(80, 160, kernel_size=(1, 1), stride=(1, 1))
          (norm): Identity()
          (act): Identity()
          (drop_path): Identity()
        )
        (v): ConvNormAct(
          (conv): Conv2d(80, 240, kernel_size=(1, 1), stride=(1, 1))
          (norm): Identity()
          (act): GELU()
          (drop_path): Identity()
        )
        (attn_drop): Dropout(p=0.0, inplace=False)
        (conv_local): ConvNormAct(
          (conv): Conv2d(240, 240, kernel_size=(5, 5), stride=(1, 1), padding=(2, 2), groups=240, bias=False)
          (norm): SyncBatchNorm(240, eps=1e-06, momentum=0.1, affine=True, track_running_stats=True)
          (act): SiLU(inplace=True)
          (drop_path): Identity()
        )
        (se): Identity()
        (proj_drop): Dropout(p=0.0, inplace=False)
        (proj): ConvNormAct(
          (conv): Conv2d(240, 80, kernel_size=(1, 1), stride=(1, 1), bias=False)
          (norm): Identity()
          (act): Identity()
          (drop_path): Identity()
        )
        (ls): Identity()
        (drop_path): DropPath(drop_prob=0.017)
      )
      (3): MetaMobileModule(
        (norm): LayerNorm2d(
          (norm): LayerNorm((80,), eps=1e-06, elementwise_affine=True)
        )
        (qk): ConvNormAct(
          (conv): Conv2d(80, 160, kernel_size=(1, 1), stride=(1, 1))
          (norm): Identity()
          (act): Identity()
          (drop_path): Identity()
        )
        (v): ConvNormAct(
          (conv): Conv2d(80, 240, kernel_size=(1, 1), stride=(1, 1))
          (norm): Identity()
          (act): GELU()
          (drop_path): Identity()
        )
        (attn_drop): Dropout(p=0.0, inplace=False)
        (conv_local): ConvNormAct(
          (conv): Conv2d(240, 240, kernel_size=(5, 5), stride=(1, 1), padding=(2, 2), groups=240, bias=False)
          (norm): SyncBatchNorm(240, eps=1e-06, momentum=0.1, affine=True, track_running_stats=True)
          (act): SiLU(inplace=True)
          (drop_path): Identity()
        )
        (se): Identity()
        (proj_drop): Dropout(p=0.0, inplace=False)
        (proj): ConvNormAct(
          (conv): Conv2d(240, 80, kernel_size=(1, 1), stride=(1, 1), bias=False)
          (norm): Identity()
          (act): Identity()
          (drop_path): Identity()
        )
        (ls): Identity()
        (drop_path): DropPath(drop_prob=0.020)
      )
      (4): MetaMobileModule(
        (norm): LayerNorm2d(
          (norm): LayerNorm((80,), eps=1e-06, elementwise_affine=True)
        )
        (qk): ConvNormAct(
          (conv): Conv2d(80, 160, kernel_size=(1, 1), stride=(1, 1))
          (norm): Identity()
          (act): Identity()
          (drop_path): Identity()
        )
        (v): ConvNormAct(
          (conv): Conv2d(80, 240, kernel_size=(1, 1), stride=(1, 1))
          (norm): Identity()
          (act): GELU()
          (drop_path): Identity()
        )
        (attn_drop): Dropout(p=0.0, inplace=False)
        (conv_local): ConvNormAct(
          (conv): Conv2d(240, 240, kernel_size=(5, 5), stride=(1, 1), padding=(2, 2), groups=240, bias=False)
          (norm): SyncBatchNorm(240, eps=1e-06, momentum=0.1, affine=True, track_running_stats=True)
          (act): SiLU(inplace=True)
          (drop_path): Identity()
        )
        (se): Identity()
        (proj_drop): Dropout(p=0.0, inplace=False)
        (proj): ConvNormAct(
          (conv): Conv2d(240, 80, kernel_size=(1, 1), stride=(1, 1), bias=False)
          (norm): Identity()
          (act): Identity()
          (drop_path): Identity()
        )
        (ls): Identity()
        (drop_path): DropPath(drop_prob=0.023)
      )
      (5): MetaMobileModule(
        (norm): LayerNorm2d(
          (norm): LayerNorm((80,), eps=1e-06, elementwise_affine=True)
        )
        (qk): ConvNormAct(
          (conv): Conv2d(80, 160, kernel_size=(1, 1), stride=(1, 1))
          (norm): Identity()
          (act): Identity()
          (drop_path): Identity()
        )
        (v): ConvNormAct(
          (conv): Conv2d(80, 240, kernel_size=(1, 1), stride=(1, 1))
          (norm): Identity()
          (act): GELU()
          (drop_path): Identity()
        )
        (attn_drop): Dropout(p=0.0, inplace=False)
        (conv_local): ConvNormAct(
          (conv): Conv2d(240, 240, kernel_size=(5, 5), stride=(1, 1), padding=(2, 2), groups=240, bias=False)
          (norm): SyncBatchNorm(240, eps=1e-06, momentum=0.1, affine=True, track_running_stats=True)
          (act): SiLU(inplace=True)
          (drop_path): Identity()
        )
        (se): Identity()
        (proj_drop): Dropout(p=0.0, inplace=False)
        (proj): ConvNormAct(
          (conv): Conv2d(240, 80, kernel_size=(1, 1), stride=(1, 1), bias=False)
          (norm): Identity()
          (act): Identity()
          (drop_path): Identity()
        )
        (ls): Identity()
        (drop_path): DropPath(drop_prob=0.026)
      )
      (6): MetaMobileModule(
        (norm): LayerNorm2d(
          (norm): LayerNorm((80,), eps=1e-06, elementwise_affine=True)
        )
        (qk): ConvNormAct(
          (conv): Conv2d(80, 160, kernel_size=(1, 1), stride=(1, 1))
          (norm): Identity()
          (act): Identity()
          (drop_path): Identity()
        )
        (v): ConvNormAct(
          (conv): Conv2d(80, 240, kernel_size=(1, 1), stride=(1, 1))
          (norm): Identity()
          (act): GELU()
          (drop_path): Identity()
        )
        (attn_drop): Dropout(p=0.0, inplace=False)
        (conv_local): ConvNormAct(
          (conv): Conv2d(240, 240, kernel_size=(5, 5), stride=(1, 1), padding=(2, 2), groups=240, bias=False)
          (norm): SyncBatchNorm(240, eps=1e-06, momentum=0.1, affine=True, track_running_stats=True)
          (act): SiLU(inplace=True)
          (drop_path): Identity()
        )
        (se): Identity()
        (proj_drop): Dropout(p=0.0, inplace=False)
        (proj): ConvNormAct(
          (conv): Conv2d(240, 80, kernel_size=(1, 1), stride=(1, 1), bias=False)
          (norm): Identity()
          (act): Identity()
          (drop_path): Identity()
        )
        (ls): Identity()
        (drop_path): DropPath(drop_prob=0.029)
      )
      (7): MetaMobileModule(
        (norm): LayerNorm2d(
          (norm): LayerNorm((80,), eps=1e-06, elementwise_affine=True)
        )
        (qk): ConvNormAct(
          (conv): Conv2d(80, 160, kernel_size=(1, 1), stride=(1, 1))
          (norm): Identity()
          (act): Identity()
          (drop_path): Identity()
        )
        (v): ConvNormAct(
          (conv): Conv2d(80, 240, kernel_size=(1, 1), stride=(1, 1))
          (norm): Identity()
          (act): GELU()
          (drop_path): Identity()
        )
        (attn_drop): Dropout(p=0.0, inplace=False)
        (conv_local): ConvNormAct(
          (conv): Conv2d(240, 240, kernel_size=(5, 5), stride=(1, 1), padding=(2, 2), groups=240, bias=False)
          (norm): SyncBatchNorm(240, eps=1e-06, momentum=0.1, affine=True, track_running_stats=True)
          (act): SiLU(inplace=True)
          (drop_path): Identity()
        )
        (se): Identity()
        (proj_drop): Dropout(p=0.0, inplace=False)
        (proj): ConvNormAct(
          (conv): Conv2d(240, 80, kernel_size=(1, 1), stride=(1, 1), bias=False)
          (norm): Identity()
          (act): Identity()
          (drop_path): Identity()
        )
        (ls): Identity()
        (drop_path): DropPath(drop_prob=0.032)
      )
    )
    (stage4): ModuleList(
      (0): MetaMobileModule(
        (norm): LayerNorm2d(
          (norm): LayerNorm((80,), eps=1e-06, elementwise_affine=True)
        )
        (v): ConvNormAct(
          (conv): Conv2d(80, 560, kernel_size=(1, 1), stride=(1, 1))
          (norm): Identity()
          (act): GELU()
          (drop_path): Identity()
        )
        (conv_local): ConvNormAct(
          (conv): Conv2d(560, 560, kernel_size=(5, 5), stride=(2, 2), padding=(2, 2), groups=560, bias=False)
          (norm): SyncBatchNorm(560, eps=1e-06, momentum=0.1, affine=True, track_running_stats=True)
          (act): SiLU(inplace=True)
          (drop_path): Identity()
        )
        (se): Identity()
        (proj_drop): Dropout(p=0.0, inplace=False)
        (proj): ConvNormAct(
          (conv): Conv2d(560, 168, kernel_size=(1, 1), stride=(1, 1), bias=False)
          (norm): Identity()
          (act): Identity()
          (drop_path): Identity()
        )
        (ls): Identity()
        (drop_path): DropPath(drop_prob=0.035)
      )
      (1): MetaMobileModule(
        (norm): LayerNorm2d(
          (norm): LayerNorm((168,), eps=1e-06, elementwise_affine=True)
        )
        (qk): ConvNormAct(
          (conv): Conv2d(168, 336, kernel_size=(1, 1), stride=(1, 1))
          (norm): Identity()
          (act): Identity()
          (drop_path): Identity()
        )
        (v): ConvNormAct(
          (conv): Conv2d(168, 588, kernel_size=(1, 1), stride=(1, 1))
          (norm): Identity()
          (act): GELU()
          (drop_path): Identity()
        )
        (attn_drop): Dropout(p=0.0, inplace=False)
        (conv_local): ConvNormAct(
          (conv): Conv2d(588, 588, kernel_size=(5, 5), stride=(1, 1), padding=(2, 2), groups=588, bias=False)
          (norm): SyncBatchNorm(588, eps=1e-06, momentum=0.1, affine=True, track_running_stats=True)
          (act): SiLU(inplace=True)
          (drop_path): Identity()
        )
        (se): Identity()
        (proj_drop): Dropout(p=0.0, inplace=False)
        (proj): ConvNormAct(
          (conv): Conv2d(588, 168, kernel_size=(1, 1), stride=(1, 1), bias=False)
          (norm): Identity()
          (act): Identity()
          (drop_path): Identity()
        )
        (ls): Identity()
        (drop_path): DropPath(drop_prob=0.037)
      )
      (2): MetaMobileModule(
        (norm): LayerNorm2d(
          (norm): LayerNorm((168,), eps=1e-06, elementwise_affine=True)
        )
        (qk): ConvNormAct(
          (conv): Conv2d(168, 336, kernel_size=(1, 1), stride=(1, 1))
          (norm): Identity()
          (act): Identity()
          (drop_path): Identity()
        )
        (v): ConvNormAct(
          (conv): Conv2d(168, 588, kernel_size=(1, 1), stride=(1, 1))
          (norm): Identity()
          (act): GELU()
          (drop_path): Identity()
        )
        (attn_drop): Dropout(p=0.0, inplace=False)
        (conv_local): ConvNormAct(
          (conv): Conv2d(588, 588, kernel_size=(5, 5), stride=(1, 1), padding=(2, 2), groups=588, bias=False)
          (norm): SyncBatchNorm(588, eps=1e-06, momentum=0.1, affine=True, track_running_stats=True)
          (act): SiLU(inplace=True)
          (drop_path): Identity()
        )
        (se): Identity()
        (proj_drop): Dropout(p=0.0, inplace=False)
        (proj): ConvNormAct(
          (conv): Conv2d(588, 168, kernel_size=(1, 1), stride=(1, 1), bias=False)
          (norm): Identity()
          (act): Identity()
          (drop_path): Identity()
        )
        (ls): Identity()
        (drop_path): DropPath(drop_prob=0.040)
      )
    )
  )
  (decode_head): ASPPHead(
    input_transform=None, ignore_index=255, align_corners=False
    (loss_decode): CrossEntropyLoss(avg_non_ignore=False)
    (conv_seg): Conv2d(256, 150, kernel_size=(1, 1), stride=(1, 1))
    (dropout): Dropout2d(p=0.1, inplace=False)
    (image_pool): Sequential(
      (0): AdaptiveAvgPool2d(output_size=1)
      (1): ConvModule(
        (conv): Conv2d(168, 256, kernel_size=(1, 1), stride=(1, 1), bias=False)
        (bn): SyncBatchNorm(256, eps=1e-05, momentum=0.1, affine=True, track_running_stats=True)
        (activate): ReLU(inplace=True)
      )
    )
    (aspp_modules): ASPPModule(
      (0): ConvModule(
        (conv): Conv2d(168, 256, kernel_size=(1, 1), stride=(1, 1), bias=False)
        (bn): SyncBatchNorm(256, eps=1e-05, momentum=0.1, affine=True, track_running_stats=True)
        (activate): ReLU(inplace=True)
      )
      (1): ConvModule(
        (conv): Conv2d(168, 256, kernel_size=(3, 3), stride=(1, 1), padding=(12, 12), dilation=(12, 12), bias=False)
        (bn): SyncBatchNorm(256, eps=1e-05, momentum=0.1, affine=True, track_running_stats=True)
        (activate): ReLU(inplace=True)
      )
      (2): ConvModule(
        (conv): Conv2d(168, 256, kernel_size=(3, 3), stride=(1, 1), padding=(24, 24), dilation=(24, 24), bias=False)
        (bn): SyncBatchNorm(256, eps=1e-05, momentum=0.1, affine=True, track_running_stats=True)
        (activate): ReLU(inplace=True)
      )
      (3): ConvModule(
        (conv): Conv2d(168, 256, kernel_size=(3, 3), stride=(1, 1), padding=(36, 36), dilation=(36, 36), bias=False)
        (bn): SyncBatchNorm(256, eps=1e-05, momentum=0.1, affine=True, track_running_stats=True)
        (activate): ReLU(inplace=True)
      )
    )
    (bottleneck): ConvModule(
      (conv): Conv2d(1280, 256, kernel_size=(3, 3), stride=(1, 1), padding=(1, 1), bias=False)
      (bn): SyncBatchNorm(256, eps=1e-05, momentum=0.1, affine=True, track_running_stats=True)
      (activate): ReLU(inplace=True)
    )
  )
  init_cfg={'type': 'Normal', 'std': 0.01, 'override': {'name': 'conv_seg'}}
  (auxiliary_head): FCNHead(
    input_transform=None, ignore_index=255, align_corners=False
    (loss_decode): CrossEntropyLoss(avg_non_ignore=False)
    (conv_seg): Conv2d(256, 150, kernel_size=(1, 1), stride=(1, 1))
    (dropout): Dropout2d(p=0.1, inplace=False)
    (convs): Sequential(
      (0): ConvModule(
        (conv): Conv2d(80, 256, kernel_size=(3, 3), stride=(1, 1), padding=(1, 1), bias=False)
        (bn): SyncBatchNorm(256, eps=1e-05, momentum=0.1, affine=True, track_running_stats=True)
        (activate): ReLU(inplace=True)
      )
    )
  )
  init_cfg={'type': 'Normal', 'std': 0.01, 'override': {'name': 'conv_seg'}}
)
2022-11-04 01:28:50,293 - mmseg - INFO - Loaded 20210 images
2022-11-04 01:28:50,847 - mmseg - INFO - Loaded 2000 images
…
